emotion_recognition/models/model_85_81.model (torch_old, 240831 bytes, 80 tensors)

conv1.weight f4 [8, 1, 3, 3]
0	0x3e94a9f3	0.2903591
1	0x3e9c1598	0.30485225
2	0x3ebaf722	0.36516672
3	0xbebdd3d4	-0.37075675
4	0xbea3d71e	-0.3200006
5	0xbd9ca9a7	-0.07649546
6	0xbe5bae86	-0.21453294
7	0xbe311228	-0.17292082
8	0x3dba6df1	0.09103001
9	0x3e9e47b0	0.30914068
10	0x3d4f5362	0.05061663
11	0x3e098776	0.1343058
12	0x3e631e49	0.22179522
13	0xbebd05d8	-0.3691852
14	0xbe61a51d	-0.22035642
15	0x3e4ccc20	0.19999743
16	0xbdb8bb07	-0.09020048
17	0xbd427423	-0.047474038
18	0xbdcbd227	-0.09952193
19	0xbe861ada	-0.2619236
20	0xbe7245f1	-0.23659493
21	0xbe1c170f	-0.15243171
22	0x3dc3f28e	0.09567748
23	0x3e075bac	0.13218564
24	0x3e51abbe	0.2047567
25	0xbc73aa9a	-0.014872218
26	0x3d18c2f0	0.037295282
27	0x3d72fd4b	0.05932359
28	0xbe6ab368	-0.2292
29	0xbd49b76b	-0.049247187
30	0xbceaab29	-0.028646069
31	0x3b872bbc	0.0041250866
32	0x3e4f10b0	0.2022121
33	0x3e7c7201	0.24652864
34	0xbbd2073b	-0.0064095533
35	0x3e2591d0	0.16168904
36	0x3c2e9ff8	0.010658257
37	0x3df439f1	0.11925114
38	0x3df9afd1	0.121917374
39	0xbddf2065	-0.10894851
40	0x3dd7d473	0.10538568
41	0x3e162eb0	0.14666247
42	0x3d85f666	0.065411374
43	0x3e03af40	0.12859821
44	0x3d8b960f	0.06815731
45	0x3deee525	0.116647996
46	0xbe053984	-0.13010222
47	0xb9e5f2c2	-0.00043859152
48	0x3bf7a329	0.007557292
49	0x3d9d280b	0.07673653
50	0x3dd5fd20	0.104486704
51	0xbe17860e	-0.14797232
52	0xbe8db491	-0.27676824
53	0x3d4cde35	0.0500166
54	0xbd1372da	-0.035998203
55	0x3e61b70d	0.22042485
56	0x399dd936	0.00030107208
57	0xbd80d307	-0.0629025
58	0xbe276350	-0.16346478
59	0xbdffb2ff	-0.12485313
60	0x3e525de6	0.20543632
61	0xbe4ec84e	-0.20193598
62	0xbeab57f0	-0.33465528
63	0xbe9fa791	-0.3118253
64	0xbe4bda20	-0.19907427
65	0x3dfecf0e	0.12441836
66	0xbdc53a31	-0.0963024
67	0xbe40ba46	-0.18821058
68	0x3e8dbb46	0.2768194
69	0x3e3fa491	0.18715121
70	0x3d780bbd	0.06055807
71	0x3ea27a13	0.3173376

bn1.weight f4 [8]
0	0x3f05e820	0.5230732
1	0x3f17287b	0.59046143
2	0x3ef1be39	0.4721544
3	0x3efe3c9e	0.49655622
4	0x3f1081ef	0.5644826
5	0x3efb4f5b	0.4908398
6	0x3f15f963	0.5858366
7	0x3f04e52c	0.5191219

bn1.bias f4 [8]
0	0x3e4ecde6	0.20195732
1	0x3d58c9b2	0.052926727
2	0xbd0df755	-0.034659702
3	0x3bda0098	0.006652903
4	0x3c8faa27	0.01753719
5	0xbe162ce4	-0.14665562
6	0xbbf79da0	-0.007556632
7	0x3e15a8d4	0.14615184

bn1.running_mean f4 [8]
0	0xbd492bba	-0.049113967
1	0x3dd228e0	0.102617025
2	0xbe189a66	-0.14902648
3	0x3e437c9a	0.190905
4	0x3eb29bc0	0.34884453
5	0xbde9a5f6	-0.11408608
6	0xbe893d1c	-0.26804435
7	0x3dc6146e	0.096718654

bn1.running_var f4 [8]
0	0x3bfdcbfd	0.0077452646
1	0x3b7ce184	0.0038586566
2	0x3bc431f3	0.0059873997
3	0x3bee61fe	0.007274865
4	0x3ca790a0	0.020454705
5	0x3b36801d	0.0027847358
6	0x3c64bb36	0.01396065
7	0x3bc647b5	0.0060510286

conv2.weight f4 [8, 8, 3, 3]
0	0x3e447661	0.19185783
1	0x3e94cddb	0.29063305
2	0x3e0d13bc	0.1377706
3	0x3cf69ada	0.030103136
4	0x3dee7690	0.11643708
5	0x3d96b64d	0.0735899
6	0xbe333f81	-0.17504694
7	0xbe50dc56	-0.20396551
8	0xbd797695	-0.060904104
9	0x3e4fc86a	0.20291296
10	0xbe7eb3a3	-0.24873213
11	0x3ce43fcc	0.027862452
12	0x3e3e5884	0.18588454
13	0xbdf38b37	-0.118917875
14	0x3e026c69	0.12736668
15	0xbd380f1c	-0.044936284
16	0xbc55d2a1	-0.013050706
17	0xbdc4da38	-0.096119344
18	0xbe1b8470	-0.1518724
19	0xbd9849a4	-0.07435921
20	0xbd448432	-0.047977634
21	0x3dc837a1	0.09776235
22	0x3c409d01	0.011756183
23	0xbc3ca593	-0.011514085
24	0x3cdfe6f3	0.027331805
25	0x3d5ae379	0.05343959
26	0x3da76644	0.081738025
27	0xbd0a21ad	-0.033723522
28	0xbd9c5ec3	-0.07635262
29	0xbb1390ca	-0.002251672
30	0x3d4e1950	0.05031711
31	0xbcfa7e47	-0.030577792
32	0x3cc09e38	0.023512945
33	0xba2e2ffc	-0.00066447235
34	0x3c8ddfec	0.017318688
35	0xbccc53bb	-0.02494227
36	0xbca71d45	-0.020399699
37	0x3d270ab9	0.04078171
38	0x3daa422c	0.083134025
39	0x3c916901	0.017750265
40	0x3c818e55	0.01581494
41	0xbbb887c7	-0.0056314203
42	0xbcb127ce	-0.021625426
43	0xbc50cce5	-0.012744163
44	0xbd0b9a65	-0.03408279
45	0x3d0bec42	0.03416086
46	0xbc238d8e	-0.00998248
47	0x3c7ee381	0.015557171
48	0xbd888fdf	-0.06668066
49	0xbd0cb025	-0.034347672
50	0xbcd34e09	-0.025794046
51	0xbc23044c	-0.009949755
52	0x3aef9d77	0.0018281181
53	0xbd82a054	-0.063782364
54	0x3ce8b542	0.028406743
55	0x3d7d9f41	0.061919454
56	0xbd877aa9	-0.066151924
57	0x3d504fa6	0.05085721
58	0x3d0a6e1d	0.03379642
59	0xbe2db75b	-0.16964476
60	0xbcbaf653	-0.022822535
61	0x3ceca0d1	0.028885277
62	0x3c15fe89	0.009154924
63	0x3dbdba0f	0.092640035
64	0xbdba9350	-0.09110129
65	0xbd8b0945	-0.067888774
66	0xbd262247	-0.040560033
67	0x3ba65768	0.0050763376
68	0x3e677143	0.226018
69	0xbbf5bb88	-0.007499162
70	0x3c12ef18	0.008968137
71	0xbcfcd9f2	-0.030865643
72	0x3ddfef50	0.10934317
73	0x3da53be5	0.080680646
74	0xbd710fa1	-0.058852796
75	0xbd043640	-0.0322783
76	0x3c432ca3	0.011912498
77	0x3e181391	0.14851214
78	0xbe162e65	-0.14666136
79	0xbd8efb5a	-0.06981535
80	0xbd830150	-0.06396735
81	0x3d444134	0.047913745
82	0xbd7dce73	-0.061964463
83	0xbd06392b	-0.032769363
84	0x3c0ccae5	0.008593296
85	0xbe361b3b	-0.17783825
86	0x3a9b0a23	0.0011828583
87	0x3c165007	0.009174353
88	0xbd9e3a74	-0.07725993
89	0xbd9d0a72	-0.07668008
90	0xbd83f1bb	-0.06442591
91	0xbc6f0b8f	-0.014590158
92	0x3db0bf41	0.08630229
93	0xbd53fa5d	-0.051752437
94	0xbda86148	-0.0822168
95	0xbd02e770	-0.031958997
96	0xbdb31c92	-0.08745684
97	0xbde5359e	-0.11191867
98	0xbd07a279	-0.03311393
99	0x3ce42165	0.027847955
100	0x3cf9c0c5	0.030487427
101	0x3cce5e99	0.025191592
102	0xbd06e067	-0.03292885
103	0x3bd3bd7b	0.006461797
104	0x3d897949	0.067125864
105	0xbdb018de	-0.08598493
106	0xbe192633	-0.14955978
107	0xbb97ac16	-0.0046286685
108	0xbc1b25f9	-0.009469503
109	0x3d3fef09	0.04685882
110	0x3b3da799	0.0028939007
111	0xbb5c8b1a	-0.0033652247
112	0xbcb95707	-0.022624506
113	0x3c7245c1	0.014787138
114	0x3ca46c31	0.020071121
115	0x3c17341c	0.009228732
116	0x3cfccf92	0.030860696
117	0xbda9f19b	-0.08298036
118	0xbdbfdce4	-0.093683034
119	0x3d36413c	0.044495806
120	0xbcf4aac4	-0.029866584
121	0xbd1a82cd	-0.037722398
122	0xbdd2bd49	-0.102900095
123	0xbd32cf58	-0.04365477
124	0x3d8cf091	0.06881822
125	0x3d8c325b	0.06845542
126	0xbe081d8b	-0.1329252
127	0x3c49d64c	0.012319159
128	0x3cc48014	0.023986854
129	0xbdd278df	-0.102769606
130	0xbc3310ac	-0.010929268
131	0xbd6d4ba4	-0.057933465
132	0xbd1e58fa	-0.038659073
133	0xbcd54287	-0.0260327
134	0xbe151c7f	-0.14561652
135	0x3ddc0982	0.10744001
136	0xbcf77261	-0.030205907
137	0xbc891a32	-0.016736124
138	0x3e00f1c0	0.1259222
139	0xbe170a15	-0.1474994
140	0xbc3a8a42	-0.011385502
141	0xbddf545f	-0.109047644
142	0xbdab79c4	-0.08372834
143	0xbdc0d341	-0.094152935
144	0x3d48cb4c	0.049022004
145	0x3d85067e	0.06495379
146	0x3c4ea257	0.012611947
147	0xbc579551	-0.013158158
148	0x3b38a2bb	0.0028173167
149	0x3cab1651	0.020884665
150	0x3cdebbd4	0.027189173
151	0x3d8d7e4e	0.06908856
152	0xbda44de4	-0.08022669
153	0xbd912a12	-0.070881024
154	0x3cf68d2b	0.030096611
155	0x3cd8fcaa	0.026487667
156	0xbc5191f7	-0.012791148
157	0x3cad013c	0.021118753
158	0x3d03c6d5	0.032172043
159	0xbda3406d	-0.079712726
160	0xbc3e7ad4	-0.011625964
161	0x3d1381c7	0.036012437
162	0xbda26250	-0.07928908
163	0x3d45a081	0.04824877
164	0xbd8089cc	-0.06276283
165	0x3df770e7	0.12082081
166	0xbbccdf99	-0.006252241
167	0xbd063443	-0.032764684
168	0xbdc753a8	-0.09732753
169	0x3bd94298	0.006630253
170	0x3d234613	0.03986175
171	0xbd536fc2	-0.051620252
172	0x3d7052c5	0.058672685
173	0x3dfbe979	0.12300391
174	0xbd4af317	-0.049548235
175	0x3da7d80c	0.081955045
176	0x3d685d88	0.056729823
177	0x3c2004a1	0.009766729
178	0x3de303b3	0.1108469
179	0x3dd032ed	0.10165963
180	0xbbe4e3e8	-0.0069851764
181	0x3d956d2b	0.07296213
182	0x3e1e194f	0.15439342
183	0x3dced9a4	0.101001054
184	0x3dcc19bd	0.09965847
185	0x3de39a9a	0.11113472
186	0x3c985ec4	0.018599875
187	0x3dfd3e3d	0.12365387
188	0x3e1a81cd	0.15088578
189	0x3d1737e8	0.03691855
190	0x3d157de3	0.036497008
191	0xbd9af446	-0.07566123
192	0xbc822fb6	-0.015891891
193	0x3ceac972	0.02866051
194	0xbb470a1e	-0.003037102
195	0xbd2735e2	-0.04082287
196	0x3cf7baeb	0.030240497
197	0x3c2e0490	0.010621205
198	0x3d4c9eb7	0.04995605
199	0x3b8927b6	0.004185642
200	0xbbf1d0e0	-0.007379636
201	0xbd893113	-0.06698813
202	0xbdaadee9	-0.08343298
203	0xbd47c0b7	-0.04876777
204	0xbc94568a	-0.018107671
205	0xbdb1c87e	-0.08680819
206	0xbd9fb868	-0.077988446
207	0xbe09761c	-0.13423961
208	0xbad04e58	-0.0015892489
209	0xbc787c1d	-0.01516631
210	0x3d5c523c	0.053789362
211	0xbcf6e549	-0.030138629
212	0xbd8a0cbc	-0.0674071
213	0x3ce85d08	0.028364673
214	0x3dda191c	0.106493205
215	0x3d8adf90	0.067809224
216	0x3be5e146	0.00701538
217	0xbb93dcb1	-0.0045123925
218	0x3bf7fbcf	0.0075678597
219	0xbdd5a675	-0.1043214
220	0xbe166812	-0.14688137
221	0xbdb44d09	-0.08803756
222	0xbdaec4d5	-0.085336365
223	0x3a76d0ca	0.0009415267
224	0x3d1300b5	0.035889346
225	0x3c88a3d8	0.01667969
226	0x3dcf9e61	0.1013763
227	0x3db6c3df	0.08924078
228	0x3d4255ac	0.047444984
229	0x3ca65f11	0.020309003
230	0x3c327ab9	0.010893517
231	0x3dae4234	0.08508721
232	0x3deab088	0.11459452
233	0x3e0dde3f	0.13854311
234	0xbdae6568	-0.085154355
235	0xbcf1056a	-0.029421527
236	0xbd5dd34c	-0.054156587
237	0xbd24f266	-0.04027023
238	0xbd575926	-0.052575253
239	0xbc719c23	-0.014746699
240	0xbdd27924	-0.10277012
241	0x3bfc8a15	0.0077068903
242	0x3d4c3548	0.0498555
243	0x3d007f3a	0.031371333
244	0x3c87e3cd	0.016588116
245	0x3d1340a8	0.035950333
246	0x3cc3b681	0.023890736
247	0x3deb4fcb	0.11489829
248	0x3d8d2294	0.06891361
249	0xbbf451f0	-0.007456057
250	0x3cff5594	0.031168737
251	0x3d6ed234	0.058305934
252	0x3decacfa	0.1155643
253	0x3d100c20	0.035167813
254	0xbd639ae6	-0.055567645
255	0x3e1ef0b1	0.15521504

bn2.weight f4 [8]
0	0x3ef5649c	0.4792832
1	0x3f09bcd1	0.53803736
2	0x3f0b2886	0.5435871
3	0x3f11cea0	0.5695591
4	0x3f0ae360	0.54253197
5	0x3f15d376	0.5852579
6	0x3eff835e	0.49904913
7	0x3f0c1873	0.54724807

bn2.bias f4 [8]
0	0x3b69f606	0.003569962
1	0x3d08827c	0.033327565
2	0x3e23806c	0.15966958
3	0x3d2fd19f	0.04292452
4	0x3d9682c2	0.07349159
5	0x3db13611	0.086528905
6	0xbcd7c724	-0.026340075
7	0x3e0b76e4	0.13619572

bn2.running_mean f4 [8]
0	0x3dea0501	0.11426736
1	0xbeb5d184	-0.3551141
2	0x3e77ce3c	0.24199766
3	0x3e343ade	0.17600581
4	0xbda79e53	-0.08184495
5	0x3e63861b	0.22219126
6	0xbe657f09	-0.22411741
7	0xbe061efa	-0.13097754

bn2.running_var f4 [8]
0	0x3e08895f	0.13333653
1	0x3d5be881	0.05368853
2	0x3e269c39	0.16270532
3	0x3e223cd9	0.15843524
4	0x3e1c1b8d	0.15244885
5	0x3e065f68	0.13122332
6	0x3e355f4c	0.17712134
7	0x3e246f66	0.1605812

module1.residual_conv.weight f4 [16, 8, 1, 1]
0	0x3c9118f7	0.0177121
1	0xbae6dcea	-0.0017613445
2	0xbe2fe8d0	-0.17178655
3	0xbe47bf5e	-0.19506595
4	0xbe3137db	-0.17306463
5	0xbd9a2eec	-0.07528481
6	0x3db9cc9a	0.09072228
7	0x3c93941a	0.018014956
8	0x3db2f580	0.08738232
9	0xbd790aa8	-0.06080118
10	0xbe4391be	-0.19098565
11	0xbe2363c8	-0.15956032
12	0x3e05cb59	0.13065852
13	0x3cb415a3	0.021982973
14	0xbca58d4c	-0.020208977
15	0xbdfa3ea9	-0.12218983
16	0x3d695d31	0.05697364
17	0xbd507943	-0.050896894
18	0x3e720c47	0.23637496
19	0xbc3a2635	-0.011361648
20	0x3e0c0185	0.13672455
21	0x3e0e91fc	0.13922876
22	0xbc1638b8	-0.009168796
23	0x3e3e2520	0.1856885
24	0x3bbd24ae	0.005772195
25	0x3e02d21f	0.12775467
26	0x3e857e0e	0.26072735
27	0xbd90c292	-0.07068361
28	0xbdaba156	-0.08380382
29	0x3e1b8a8a	0.15189567
30	0xbe2aa92c	-0.16666096
31	0x3e1189cd	0.14212723
32	0xbe00c2d5	-0.12574323
33	0xbbe6d566	-0.007044482
34	0x3d8ec668	0.06971437
35	0x3e1799d3	0.14804773
36	0x3cdb6bdf	0.026784835
37	0xbc903134	-0.017601587
38	0xbdb66e31	-0.08907736
39	0x3e0cc10b	0.13745515
40	0x3d391ac9	0.04519156
41	0x3d9db011	0.076995976
42	0xbcc66546	-0.024218213
43	0xbbff9cf8	-0.0078006946
44	0xbe03451a	-0.12819329
45	0xbe5b2899	-0.21402206
46	0xbd22983c	-0.039695963
47	0x3e1b9b7e	0.15196034
48	0x3cac2082	0.021011595
49	0xbe0f1d2d	-0.13975973
50	0xbd18c5d8	-0.037298054
51	0x3dced0ed	0.10098443
52	0xbe3d3196	-0.18475947
53	0xbe9a46e9	-0.30132225
54	0x3e8156b2	0.25261456
55	0xbd1d1cc9	-0.03835753
56	0x3d8acb40	0.06777048
57	0x3bb13034	0.0054073576
58	0x3d2713d9	0.040790413
59	0x3e7c198e	0.24619123
60	0x3ded1b2c	0.11577448
61	0xbd315b52	-0.04329998
62	0x3d9b565b	0.075848304
63	0x3d81d76b	0.06339916
64	0x3d3a9326	0.045550488
65	0xbda3f6ef	-0.08006083
66	0x3d5297a4	0.051414147
67	0xbbf2cf97	-0.0074100005
68	0x3e5ac478	0.2136401
69	0x3df6314f	0.120211236
70	0x3d466d52	0.0484441
71	0xbe272210	-0.16321588
72	0x3dd19460	0.102333784
73	0x3df3fda0	0.119136095
74	0x3e09edc8	0.13469613
75	0x3e6c83eb	0.23097198
76	0x3d3f33bc	0.046680197
77	0xbdb69ca9	-0.08916599
78	0xbbda6836	-0.006665255
79	0xbca3c1c4	-0.019989856
80	0xbd7ec164	-0.06219615
81	0xbd106d8a	-0.035260715
82	0xbd14a4cf	-0.036289986
83	0xbc8142c4	-0.015778907
84	0xbd035126	-0.03205981
85	0xbe965f29	-0.29369476
86	0xbca091f0	-0.019600838
87	0xbd1b5317	-0.037921038
88	0x3d8c7772	0.0685872
89	0xbd95e8a0	-0.0731976
90	0xbe37578e	-0.17904493
91	0xbc41c8e8	-0.011827685
92	0x3e12022b	0.1425864
93	0x3e25d4ff	0.16194533
94	0xbdb43ed2	-0.088010445
95	0xbd04afb5	-0.03239413
96	0xbc24ac05	-0.010050778
97	0xbe4cf8b6	-0.2001675
98	0x3d049e65	0.03237762
99	0x3d98f89a	0.07469292
100	0xbe31807a	-0.17334166
101	0x3e35a58e	0.17738935
102	0xbe0c8ea2	-0.13726285
103	0x3e3b9abb	0.18320744
104	0xbe23ad22	-0.15984014
105	0x3dacfbf4	0.08446494
106	0x3dd0c218	0.101932704
107	0x3e38d6c5	0.18050678
108	0x3da20802	0.079116836
109	0x3c47b587	0.012189276
110	0xbe4a5abf	-0.1976118
111	0x3baa3eb1	0.0051954617
112	0xbc224fd5	-0.009906729
113	0x3d5771f0	0.052598894
114	0x3cc8cc73	0.024511551
115	0x3c6e523f	0.014545976
116	0xbd976831	-0.0739292
117	0xbe7d6d9b	-0.24748842
118	0xbd2d7f3d	-0.042357672
119	0xbe446c92	-0.19182041
120	0xbcc51585	-0.024058113
121	0xbdceeda7	-0.10103922
122	0x3e22b804	0.15890509
123	0x3d85df9e	0.06536792
124	0xbdf9bbe3	-0.1219404
125	0xbd38c422	-0.04510892
126	0xbe5cd8c1	-0.2156706
127	0x3d69c8af	0.057076152

module1.residual_bn.weight f4 [16]
0	0x3f0a596d	0.540427
1	0x3eefbf16	0.46825475
2	0x3f0850c1	0.5324822
3	0x3efe7ba0	0.49703693
4	0x3f07476e	0.5284337
5	0x3f0b7c0e	0.5448617
6	0x3ef748c0	0.4829769
7	0x3eefd913	0.46845302
8	0x3eeb0ad8	0.4590671
9	0x3ed73497	0.4203231
10	0x3ef7197b	0.48261628
11	0x3f12c3fa	0.57330287
12	0x3ef07f74	0.4697224
13	0x3f028852	0.5098926
14	0x3f03fcae	0.51557434
15	0x3f05a0f1	0.521987

module1.residual_bn.bias f4 [16]
0	0x3d16cc20	0.036815763
1	0x3bff78f2	0.0077964
2	0xbc9d16d9	-0.019175934
3	0xbbb43076	-0.005498941
4	0xbc52df15	-0.01287057
5	0x3c6e1acb	0.014532755
6	0x3d095017	0.033523645
7	0x3aa91d5c	0.0012902427
8	0xbc477bc4	-0.012175504
9	0xbb6c244e	-0.0036032381
10	0xbb4269f5	-0.0029665206
11	0xbc755870	-0.014974698
12	0xbc4c170c	-0.012456667
13	0xbc59abd0	-0.013285592
14	0xbc2ee3ac	-0.010674398
15	0x3bd33352	0.006445327

module1.residual_bn.running_mean f4 [16]
0	0xbe0e8d32	-0.13921049
1	0xbdd01150	-0.10159552
2	0x3e409829	0.18808044
3	0x3df7cbef	0.12099444
4	0x3d810eb1	0.0630163
5	0xbd17f91d	-0.037102807
6	0xbdcd2494	-0.10016742
7	0x3e0b2bd2	0.13590935
8	0x3d48a65c	0.048986778
9	0x3dfdb5cc	0.123881906
10	0xbe086822	-0.13320974
11	0xbc657bd4	-0.014006574
12	0x3c551d67	0.013007498
13	0x3d6db4a4	0.0580336
14	0xbdfe75ff	-0.1242485
15	0xbce280c1	-0.027649285

module1.residual_bn.running_var f4 [16]
0	0x3c8b0478	0.016969904
1	0x3d19073c	0.037360415
2	0x3c7b79a2	0.015348824
3	0x3cb6210e	0.022232559
4	0x3c9f66a3	0.01945812
5	0x3cdc54c5	0.02689589
6	0x3cd28996	0.025700372
7	0x3c47a3a6	0.012185013
8	0x3cdb3b17	0.026761575
9	0x3caff1ea	0.021477658
10	0x3c8bca9d	0.017064387
11	0x3cdf253f	0.02723944
12	0x3c86d4a4	0.016458817
13	0x3cad3d9c	0.021147542
14	0x3c9537b2	0.018215034
15	0x3cf70007	0.03015138

module1.sepConv1.depthwise.weight f4 [8, 1, 3, 3]
0	0xbe095d6f	-0.13414548
1	0xbda95d22	-0.08269717
2	0xbdb9129a	-0.09036751
3	0x3ecb6b68	0.39730382
4	0xbddd20a6	-0.10797243
5	0x3e22a388	0.15882695
6	0xbe24874c	-0.16067237
7	0xbecd2f71	-0.40075257
8	0xbd052a4b	-0.032511037
9	0xbcd8e3fd	-0.0264759
10	0xbd8646f9	-0.06556506
11	0xbbea14ba	-0.007143584
12	0x3e24d69e	0.16097495
13	0xbdedaf29	-0.11605675
14	0x3e877cc9	0.2646239
15	0x3d7f09f0	0.062265337
16	0xbe83d327	-0.25747034
17	0xbe49fb92	-0.19724873
18	0x3e2ef33b	0.17084973
19	0xbe3fb27f	-0.18720435
20	0x3da1a658	0.07893056
21	0xbdc62749	-0.09675462
22	0x3d45002d	0.04809587
23	0x3e0fbc59	0.14036693
24	0x3d8cc59c	0.068736285
25	0xbe500043	-0.203126
26	0xbe92ec36	-0.2869584
27	0x3d4d32dc	0.05009733
28	0x3e57e919	0.21085013
29	0x3df90bcf	0.121604554
30	0xbe89734f	-0.26845786
31	0xbd1e4d7c	-0.038648114
32	0xbe165fdc	-0.14685005
33	0xbe536ec3	-0.20647721
34	0xbaecdbc5	-0.0018070868
35	0x3e233e2a	0.15941682
36	0x3db715c0	0.08939695
37	0x3e1fdc66	0.15611419
38	0xbcce3130	-0.025169939
39	0xbc6a0a4d	-0.014284682
40	0x3e90e174	0.28297007
41	0x3e51151b	0.20418207
42	0xbe7a7b8d	-0.24461193
43	0x3ce86247	0.028367175
44	0xbd01722b	-0.03160302
45	0x3d66df81	0.056365494
46	0xbcba7741	-0.022761943
47	0x3cfe13b9	0.031015264
48	0xbe11e02b	-0.1424567
49	0xbe1259d3	-0.14292078
50	0x3ba64e63	0.0050752624
51	0x3e4f1172	0.20221499
52	0xbd958186	-0.07300095
53	0x3be734db	0.0070558614
54	0x3d97c4ed	0.074106075
55	0x3dc75b3d	0.09734199
56	0x3d9bbd67	0.07604485
57	0xbddf4c4d	-0.10903225
58	0x3e84ee27	0.25962946
59	0x3e5ff607	0.21871196
60	0x3d21a215	0.039461214
61	0xbe63e47b	-0.22255127
62	0xbd889137	-0.066683225
63	0xbde3131d	-0.1108763
64	0x3ea0d651	0.3141351
65	0x3e9152d7	0.28383514
66	0xbe954d17	-0.29160377
67	0xbe07f65b	-0.13277571
68	0xbe46e10a	-0.19421783
69	0xbe850e3d	-0.25987425
70	0x3e0bbc29	0.13645996
71	0xbd324bb3	-0.043529224

module1.sepConv1.pointwise.weight f4 [16, 8, 1, 1]
0	0xbe93c7a1	-0.28863242
1	0xbda6b885	-0.08140663
2	0xbe0ab65c	-0.13546127
3	0xbdae620b	-0.08514794
4	0xbb463ae1	-0.0030247497
5	0xbdc0a451	-0.09406341
6	0x3d64050c	0.055668876
7	0xbe89085f	-0.267642
8	0x3c838ff0	0.016059846
9	0xbe92f47b	-0.2870215
10	0x3e2431b3	0.16034584
11	0xbe0b41a8	-0.13599265
12	0xbe35fc44	-0.17772013
13	0xbd4aee91	-0.04954392
14	0x3cb27e42	0.02178872
15	0x3e59381e	0.21212813
16	0xbe6708b3	-0.22561912
17	0xbe2bc0d8	-0.16772783
18	0xbe030755	-0.12795766
19	0x3e0b1ea7	0.13585912
20	0xbe1f6aa3	-0.15568022
21	0x3e07ee56	0.13274512
22	0xbdedc405	-0.116096534
23	0x3d8ea671	0.0696534
24	0x3d8faf39	0.07015843
25	0xbdf30a66	-0.11867218
26	0x3d1726d6	0.03690227
27	0xbd901775	-0.07035724
28	0x3e474c17	0.1946262
29	0x3dc07696	0.093976185
30	0x3e9ebdd8	0.31004214
31	0x3d788598	0.06067428
32	0x3e5d96ea	0.216396
33	0xbc8684e8	-0.016420797
34	0xbd1cc2c5	-0.038271684
35	0x3e1d4fd0	0.15362477
36	0xbd9c9f9f	-0.07647633
37	0x3e518986	0.20462617
38	0xbd93d9ce	-0.07219277
39	0x3d5b0369	0.05347005
40	0x3e5afbbd	0.21385093
41	0x3d643b10	0.05572039
42	0x3dcf2d75	0.10116092
43	0x3d4c551b	0.04988585
44	0xbe133544	-0.14375788
45	0x3c026caf	0.0079604825
46	0x3e5acd96	0.21367487
47	0x3d953eb2	0.07287349
48	0xbe6176cc	-0.22017974
49	0xbdddd625	-0.108318605
50	0xbe25756d	-0.16158076
51	0xbd18413f	-0.0371716
52	0x3e20c284	0.15699202
53	0x3d19f3c0	0.037585974
54	0x3dcfe1e5	0.10150508
55	0x3ccb9f1b	0.02485614
56	0x3e41aa84	0.18912703
57	0x3c005fef	0.007835372
58	0x3da491e3	0.08035638
59	0xbe5bd02f	-0.21466134
60	0xbbc41c37	-0.005984809
61	0x3e556170	0.2083795
62	0xbcf90080	-0.030395746
63	0x3daf7576	0.08567326
64	0x3e02cf2b	0.12774341
65	0x3e4f26e4	0.2022968
66	0x3d57ffad	0.052734066
67	0xbb1a9c74	-0.0023591788
68	0x3d1d7b1d	0.038447488
69	0xbc25266e	-0.010079963
70	0xbe2d75e5	-0.16939504
71	0xbe829ce1	-0.25510314
72	0xbdd3959c	-0.1033127
73	0xbc9c6881	-0.0190928
74	0x3df27fb9	0.118407674
75	0x3df1bc35	0.11803476
76	0xbe68fd9e	-0.22752997
77	0xbe171e96	-0.14757761
78	0x3e71bf52	0.23608139
79	0x3ddb8fe9	0.10720808
80	0xbe2168f4	-0.15762693
81	0xbda43211	-0.08017362
82	0xbd9c3455	-0.07627169
83	0x3dc23651	0.09483016
84	0xbe17acd9	-0.1481203
85	0xbe002c20	-0.12516832
86	0xbe0842eb	-0.13306777
87	0xbdba750d	-0.09104357
88	0xbe50c250	-0.20386624
89	0xbdf8f268	-0.1215561
90	0x3e49e759	0.19717158
91	0x3dc1f5d2	0.09470715
92	0x3d06ca85	0.03290798
93	0x3b4875ac	0.0030587716
94	0xbde7afb0	-0.113128066
95	0xbe34e15d	-0.17664094
96	0x3e008e0a	0.12554184
97	0x3dd5a0c3	0.104310535
98	0xbe1f5957	-0.15561424
99	0x3db074d3	0.086160325
100	0xbd5366fb	-0.05161188
101	0xbb7e3b27	-0.0038792582
102	0xbdc43ff8	-0.095825136
103	0x3dae517e	0.08511637
104	0x3d5dcf09	0.054152522
105	0xbe0e2480	-0.13881111
106	0x3d68c7ab	0.056831043
107	0x3d81fbad	0.063468315
108	0x3e05229e	0.13001487
109	0x3d496456	0.049167953
110	0xbe0dc3d9	-0.13844241
111	0x3eca25eb	0.39482054
112	0x3e183e70	0.14867568
113	0x3e02103d	0.12701507
114	0xbe00e327	-0.12586652
115	0xbe75d367	-0.24006425
116	0xbd2c4d60	-0.042065978
117	0x3d5b8d5c	0.053601608
118	0xbd51e98f	-0.05124813
119	0xbe1978aa	-0.14987436
120	0xbd3d0ae7	-0.046152975
121	0xbc8cf051	-0.017204436
122	0xbd8f93fe	-0.07010649
123	0x3da4dbda	0.08049746
124	0xbe925729	-0.28582123
125	0x3d88c515	0.066782154
126	0xbd0ec7ae	-0.0348584
127	0xbd79eddf	-0.061017867

module1.bn1.weight f4 [16]
0	0x3f02a160	0.5102749
1	0x3f10be89	0.56540734
2	0x3f0fb59b	0.5613648
3	0x3ef44daf	0.47715518
4	0x3f0e5938	0.55604887
5	0x3f109b7c	0.5648725
6	0x3efd8f0f	0.49523208
7	0x3f0d71ac	0.55251575
8	0x3f0ebf37	0.5576052
9	0x3f05b7bf	0.522335
10	0x3f008b9c	0.50213027
11	0x3ef93f02	0.48680884
12	0x3f105735	0.5638307
13	0x3f12d75a	0.5735985
14	0x3f0cfa6e	0.55069625
15	0x3f0535dd	0.52035314

module1.bn1.bias f4 [16]
0	0x3c228f06	0.009921795
1	0x3d9af2e5	0.0756586
2	0xbc5049ff	-0.012712955
3	0x3cc9acaf	0.024618475
4	0x3de36a71	0.111042865
5	0x3da839cb	0.08214148
6	0xbde19004	-0.11013797
7	0x3e354e8a	0.17705742
8	0x3c497ebd	0.012298283
9	0x3d11dce4	0.03561105
10	0xbb85422d	-0.0040667267
11	0x3b0bfb2d	0.002135943
12	0xba8e907d	-0.0010876801
13	0xbc7b2e25	-0.015330826
14	0x3d41ea33	0.04734249
15	0x3d29358f	0.041310843

module1.bn1.running_mean f4 [16]
0	0x3d839924	0.06425694
1	0xbd04893c	-0.03235744
2	0xbbe1e3ac	-0.0068935957
3	0x3d0d01d6	0.03442558
4	0xbd1b6e1c	-0.037946805
5	0xbd040664	-0.032232657
6	0x3d59bf72	0.053161092
7	0xbcdd6450	-0.027025372
8	0xbbbbb0da	-0.0057278695
9	0xbc9a5912	-0.0188413
10	0x3b030705	0.0019993198
11	0x3c2c2e06	0.01050902
12	0xbcb83d72	-0.022490237
13	0xbd113f46	-0.035460733
14	0x3bd35cc0	0.0064502656
15	0xbcb8b374	-0.022546507

module1.bn1.running_var f4 [16]
0	0x3b928a06	0.00447202
1	0x3b3062a5	0.0026914265
2	0x3b87d9aa	0.0041458206
3	0x3b7811a4	0.0037852312
4	0x3b2691b3	0.0025416433
5	0x3b38f560	0.0028222427
6	0x3b2f979b	0.0026793245
7	0x3b09340a	0.0020935559
8	0x3b63a20a	0.0034734034
9	0x3b3b4e91	0.0028580765
10	0x3b37b529	0.0028031564
11	0x3b09e674	0.0021041902
12	0x3a977aa3	0.0011556934
13	0x3be474e8	0.006971944
14	0x3b8789eb	0.004136314
15	0x3b80fdd0	0.003936507

module1.sepConv2.depthwise.weight f4 [16, 1, 3, 3]
0	0xbe1c377b	-0.15255539
1	0x3e0faaaa	0.14029947
2	0xbe5ecdf1	-0.21758248
3	0x3daea513	0.08527579
4	0xbe1732e7	-0.14765511
5	0xbe12d8df	-0.14340542
6	0x3e1a8445	0.1508952
7	0xbe0d25a3	-0.13783889
8	0xbdb5e119	-0.088808246
9	0x3e4cc539	0.1999711
10	0x3e4c5ea0	0.19957972
11	0xbe57c739	-0.21072091
12	0xbe09ea68	-0.13468325
13	0xbddcc290	-0.10779297
14	0xbdda9b9e	-0.10674213
15	0xbd420a77	-0.04737326
16	0xbdb6027e	-0.08887194
17	0xbc810c3d	-0.015752906
18	0xbdb1801b	-0.08667012
19	0xbe0f26be	-0.13979623
20	0x3c8bed3a	0.017080892
21	0xbcc9998b	-0.024609348
22	0xbdec7270	-0.11545265
23	0x3ea106c5	0.31450477
24	0xbe4db8e7	-0.20090066
25	0x3e26851f	0.16261719
26	0x3e3213b8	0.17390335
27	0x3e09940a	0.13435379
28	0x3e1d810a	0.15381256
29	0x3c7e6a03	0.015528205
30	0x3e44df73	0.19225864
31	0x3e134dd7	0.14385162
32	0xbe1bafe6	-0.15203819
33	0x3e3232c5	0.1740218
34	0xbd1e2764	-0.038611785
35	0xbd293916	-0.041314207
36	0xbe4640d8	-0.19360673
37	0xbd1d4085	-0.03839161
38	0x3dbc25c3	0.0918689
39	0xbe394d7f	-0.18095969
40	0xbe2b3c78	-0.16722286
41	0x3e51dda7	0.2049471
42	0xbe263616	-0.1623157
43	0x3dc37ca3	0.09545257
44	0x3df07e23	0.11742809
45	0xbde95c39	-0.11394543
46	0x3e6c51fd	0.23078151
47	0x3d0a91be	0.033830397
48	0x3e2787a3	0.16360335
49	0x3d1feb96	0.03904303
50	0x3e394379	0.18092145
51	0xbe71b261	-0.23603202
52	0x3d20ec62	0.039287932
53	0x3e0504cb	0.1299011
54	0xbcaa5e07	-0.020796789
55	0xbdccca61	-0.09999538
56	0x3daeb302	0.08530237
57	0x3c21ac0a	0.009867677
58	0x3e52b625	0.20577295
59	0x3dc586dd	0.09644864
60	0x3e057f00	0.13036728
61	0xbdbba22f	-0.091617934
62	0x3d2609e8	0.04053679
63	0xbe0c1d1a	-0.13682976
64	0x3d8e4290	0.069462895
65	0xbd110d32	-0.035412975
66	0xbe818776	-0.2529866
67	0xbb308c25	-0.0026939001
68	0x3d66037c	0.056155667
69	0xbc7c7d3b	-0.015410717
70	0x3e8090ce	0.25110477
71	0x3dbcb77a	0.09214683
72	0xbe52a500	-0.20570755
73	0x3b3c320d	0.0028716356
74	0xbd154008	-0.036438018
75	0xbdec1a8d	-0.11528502
76	0xbde109ca	-0.10988195
77	0x3e23c80a	0.15994278
78	0xbdfc5978	-0.12321752
79	0x3d87000f	0.06591808
80	0x3e101ce3	0.1407352
81	0xbd8a4552	-0.06751503
82	0x3e394164	0.18091351
83	0x3d8d4ba3	0.06899192
84	0x3e895cb4	0.2682854
85	0xbd360ee2	-0.044447787
86	0xbd19954f	-0.037495907
87	0x3e222364	0.15833813
88	0xbcb338e8	-0.021877721
89	0xbdd8c727	-0.1058486
90	0xbd6063da	-0.054782726
91	0x3e0a64cb	0.13515012
92	0xbdc6596a	-0.09685023
93	0x3dcda01e	0.100403056
94	0x3d9a2972	0.07527436
95	0xbd5891e5	-0.05287351
96	0xbe0e1bf3	-0.1387785
97	0x3d3e7fe6	0.046508692
98	0x3cbc9772	0.023021434
99	0xbd8e308b	-0.069428526
100	0x3e15cbe9	0.14628567
101	0xbe07b444	-0.1325236
102	0x3de4357f	0.11143016
103	0x3d18db84	0.03731872
104	0xbdf93c6d	-0.121697284
105	0x3e044109	0.12915434
106	0x3dddabd0	0.10823786
107	0x3e02577c	0.12728685
108	0x3dd035fe	0.10166548
109	0x3c0a0e13	0.008426207
110	0x3dc844af	0.09778725
111	0xbd8d91fe	-0.069126114
112	0x3e77abbf	0.2418661
113	0xbe51fa1a	-0.20505562
114	0xbe381dd6	-0.17980132
115	0x3e0d99c1	0.13828184
116	0x3e00fb4d	0.12595864
117	0x3e51c200	0.20484161
118	0x3e3108eb	0.17288558
119	0xbe1b6c91	-0.15178134
120	0xbe2d3be9	-0.16917385
121	0x3d953d10	0.072870374
122	0x3e84b190	0.2591672
123	0xbdde487b	-0.10853668
124	0x3dc838eb	0.09776481
125	0x3e2e9545	0.1704913
126	0x3e1192d9	0.14216174
127	0xbdfea1b8	-0.12433189
128	0x3e7c476c	0.2463662
129	0xbdd87da5	-0.1057084
130	0xbe00e330	-0.12586665
131	0x3e7e945a	0.24861279
132	0xbe37fe5e	-0.17968127
133	0xbd3e0dad	-0.04639976
134	0xbd829f97	-0.063780956
135	0xbd947d1e	-0.07250427
136	0xbcbe9e03	-0.023268705
137	0xbdbe13e4	-0.092811376
138	0xbe507e20	-0.20360613
139	0x3daf7363	0.0856693
140	0xbdc4f85b	-0.096176825
141	0xbe12bc91	-0.14329745
142	0xbcf95822	-0.030437533
143	0xbd06ac95	-0.03287943

module1.sepConv2.pointwise.weight f4 [16, 16, 1, 1]
0	0x3da6cb9f	0.081443064
1	0xbd66e423	-0.056369912
2	0x3cb06983	0.021534687
3	0x3e2070c1	0.15668012
4	0x3e071bc4	0.13194185
5	0xbd23343b	-0.039844733
6	0xbdd98053	-0.10620179
7	0x3e167560	0.14693213
8	0x3d525ac0	0.051356077
9	0x3e169798	0.14706266
10	0x3d26aabb	0.040690165
11	0xbd41cb46	-0.047312997
12	0x3944a6be	0.00018754133
13	0x3e306827	0.17227231
14	0x3e091a69	0.13388981
15	0x3db7d087	0.0897532
16	0xbdc2c323	-0.095098756
17	0x3e2be8cb	0.16788022
18	0x3e9210c4	0.28528416
19	0x3dcdb36e	0.10043989
20	0x3d2cbb20	0.042170644
21	0xbe1f6c13	-0.15568571
22	0xbda22a90	-0.079182744
23	0xbe3ff752	-0.18746689
24	0xbd1d2b63	-0.038371455
25	0xbe20acb3	-0.1569088
26	0x3c68e5e8	0.01421497
27	0x3dac74c9	0.084207125
28	0xbd5db735	-0.054129798
29	0x3db62a6e	0.088948116
30	0x3d4fea4f	0.050760563
31	0x3ad72259	0.0016413435
32	0x3d0af280	0.033922672
33	0x3d553fd8	0.05206284
34	0x3dbaf440	0.09128618
35	0x3c3e2ac1	0.011606873
36	0xbc944572	-0.01809952
37	0x3d49dec2	0.049284704
38	0x3e41cc94	0.18925697
39	0xbd294261	-0.04132307
40	0x3cd88936	0.026432615
41	0x3dd72cbb	0.105065785
42	0x3cb6a71d	0.022296483
43	0xbd7ed0eb	-0.06221096
44	0x3dad608a	0.08465679
45	0x3e399472	0.18123034
46	0x3d833c75	0.06408016
47	0xbe458cd6	-0.19292006
48	0x3e51072a	0.20412889
49	0xbe060a81	-0.13089944
50	0x3d9ce54a	0.07660921
51	0xbe2647bd	-0.16238303
52	0x3e3cb7f5	0.18429549
53	0xbd82a8bf	-0.06379842
54	0xbdf214fb	-0.11820408
55	0x3e04774b	0.12936132
56	0xbe2132db	-0.15742056
57	0x3e1952ec	0.14973038
58	0xbc01e6f5	-0.0079286
59	0x3d6295a7	0.0553185
60	0x3d958a93	0.073018216
61	0x3d88d7a7	0.066817574
62	0xbe1668ea	-0.14688459
63	0x3d81fedf	0.06347441
64	0xbddb22c4	-0.106999904
65	0xbca25779	-0.0198171
66	0xbd46ebe7	-0.048564818
67	0x3ce5de61	0.02806014
68	0x3d511d07	0.051053073
69	0xbdeaf8cc	-0.114732355
70	0x3cb863f1	0.022508593
71	0x3dc5e8d3	0.09663548
72	0x3c68a4b3	0.014199424
73	0x3d135858	0.035972923
74	0x3d54afe5	0.05192556
75	0x3c9be8dd	0.019031936
76	0x3e09ffac	0.13476437
77	0xbe34b202	-0.1764603
78	0x3e368cf0	0.17827201
79	0xbd4d9c36	-0.050197802
80	0x3db7fb91	0.08983529
81	0xbe35f7d1	-0.17770316
82	0x3db9a60d	0.09064875
83	0xbdb6ca5e	-0.08925317
84	0x3bb8c71b	0.0056389696
85	0xbd462b0a	-0.04838089
86	0xbcdac0be	-0.026703235
87	0xbda0bba3	-0.07848289
88	0xbdcc5043	-0.09976246
89	0x3d3b9129	0.045792732
90	0x3d2a5355	0.041583378
91	0x3d3b52ff	0.045733448
92	0x3d8b9d1a	0.06817074
93	0xbe067086	-0.13128862
94	0x3d94f4bf	0.07273244
95	0xbe0700fd	-0.13183971
96	0x3d44580d	0.047935534
97	0x3e89a8d7	0.26886627
98	0xbdf87a18	-0.121326625
99	0xbca0e708	-0.019641414
100	0x3dad530d	0.08463106
101	0x3db6cca6	0.08925752
102	0xbe53de30	-0.20690227
103	0xbde5a1ac	-0.11212477
104	0x3dc19388	0.094519675
105	0x3df3b557	0.11899822
106	0x3d14deef	0.03634542
107	0xbc72276e	-0.014779909
108	0xbe4565f1	-0.19277169
109	0x3e4b785a	0.19870129
110	0xbcce6cd6	-0.025198381
111	0x3d740a98	0.059580415
112	0xbda23ff2	-0.07922353
113	0xbe121ef2	-0.14269617
114	0xbe05eaa8	-0.13077796
115	0xbe07bc7d	-0.13255496
116	0xbdc1f0e6	-0.09469776
117	0x3de21b59	0.110403724
118	0xbdb7126a	-0.08939059
119	0xbbdc3703	-0.006720425
120	0x3da33603	0.07969286
121	0x3c993af9	0.018704878
122	0xbcfaa6bb	-0.030597081
123	0xbdaca68a	-0.08430202
124	0x3d23d5b5	0.03999873
125	0x3e1816d2	0.14852455
126	0x3ddf9186	0.10916428
127	0xbda0ed7b	-0.07857796
128	0xbc972467	-0.018449975
129	0xbd9eef04	-0.07760432
130	0x3d839be2	0.06426217
131	0x3e6ce89d	0.2313561
132	0xbdf8f091	-0.121552594
133	0xbe1f7fa1	-0.1557603
134	0x3d905a63	0.0704849
135	0xbd52dec0	-0.051481962
136	0xbcd7f12e	-0.02636012
137	0x3cc2ee97	0.02379541
138	0xbdf8591e	-0.12126373
139	0xbdc49921	-0.095995195
140	0x3cc29169	0.023750978
141	0xbd6e728d	-0.058214713
142	0xbcd44a9f	-0.025914488
143	0x3ddad092	0.10684313
144	0xbe0c8723	-0.13723426
145	0xbe15abfe	-0.14616391
146	0xbdacc114	-0.08435264
147	0x3d550337	0.05200502
148	0xbd4cacec	-0.0499696
149	0x3e84e935	0.25959173
150	0xbc2f9231	-0.010716007
151	0xbe22d505	-0.15901573
152	0x3cb650cb	0.022255322
153	0x3c95e3ed	0.01829716
154	0xbe1bc436	-0.15211567
155	0x3dd1014c	0.102053255
156	0xbd6343b3	-0.055484485
157	0x3dca4de1	0.098781355
158	0xbceb0b27	-0.028691841
159	0x3d701178	0.05861041
160	0x3e4a6cc1	0.19768049
161	0x3d9139f1	0.070911296
162	0x3cc8caff	0.024510859
163	0xbc3fcb2a	-0.011706153
164	0x3e6cbe04	0.2311936
165	0x3cb96fe7	0.022636367
166	0xbd80ed97	-0.06295317
167	0xbd8942a4	-0.06702164
168	0x3c9948b4	0.018711425
169	0x3e1ef561	0.15523292
170	0x3c46d930	0.0121367425
171	0xbc881e0d	-0.016615892
172	0xbd7f4814	-0.0623246
173	0xbe22e092	-0.1590598
174	0xbda19576	-0.078898355
175	0xbd5c4b95	-0.05378302
176	0x3adaa2d6	0.0016680609
177	0xbd726a9e	-0.05918371
178	0x3de00146	0.10937743
179	0xbe1762e6	-0.1478382
180	0x3dc6a695	0.09699742
181	0x3de448fa	0.11146732
182	0xbcfad27d	-0.030617947
183	0x3d17f76d	0.037101198
184	0xbd8783c9	-0.06616933
185	0xbe235ea4	-0.15954071
186	0xbe02df3e	-0.12780473
187	0x3e082b20	0.13297701
188	0x3d8ecf5e	0.06973146
189	0xbde2f8ca	-0.11082609
190	0xbe33aaf0	-0.17545676
191	0x3d02577a	0.031821705
192	0xbd26355f	-0.040578242
193	0xbd1aa02b	-0.037750404
194	0x3b119e65	0.0022219655
195	0xbd102765	-0.03519382
196	0xbca304e9	-0.019899802
197	0x3e2b4e92	0.16729191
198	0x3d808ae3	0.062764905
199	0xbda04f9d	-0.07827685
200	0xbe0a2bc0	-0.13493252
201	0x3e0b3d5f	0.1359763
202	0xbd82284c	-0.06355342
203	0x3e4dd0d8	0.20099199
204	0xbccacbb8	-0.024755344
205	0x3dd1b5f3	0.10239782
206	0x3d279261	0.040911082
207	0xbe2b737d	-0.16743274
208	0x3c38f30b	0.011288415
209	0xbc81013a	-0.015747655
210	0x3d3a5bbf	0.045497652
211	0xbd8b89cf	-0.06813394
212	0x3bc64b33	0.006051445
213	0x3e413c6d	0.18870707
214	0x3d5eefa9	0.054427776
215	0xbd1675a2	-0.036733277
216	0x3e5e05ca	0.21681896
217	0xbdbde1d9	-0.09271593
218	0x3d0c483c	0.034248576
219	0xbd516101	-0.0511179
220	0x3e3c7eb8	0.18407714
221	0xbe0c6b16	-0.13712725
222	0x3e3fb56b	0.18721549
223	0x3de96bfe	0.11397551
224	0xbe302638	-0.1720208
225	0x3dac5ba5	0.08415917
226	0x3d703b2b	0.058650177
227	0xbdd8d96f	-0.10588347
228	0x3d90bca4	0.0706723
229	0xbc8752d6	-0.016518991
230	0x3db8bcb5	0.09020368
231	0x3e4e0df6	0.20122513
232	0x3e0436f4	0.12911588
233	0x3d7bc943	0.061471235
234	0x3d302f07	0.0430136
235	0xbdfe0bf5	-0.124046244
236	0x3db18a88	0.08669001
237	0x3cdb4fef	0.026771514
238	0xbdec7558	-0.11545819
239	0x3dd46e37	0.10372584
240	0x3dd13aee	0.10216318
241	0x3d720aa3	0.059092175
242	0x3d22c0aa	0.03973452
243	0xbdb43efb	-0.08801075
244	0xbe062063	-0.13098292
245	0x396bdbdb	0.00022493249
246	0x3c46b52c	0.012128156
247	0x3d9aebcc	0.07564506
248	0x3ca43e69	0.02004929
249	0xbd9dbd44	-0.07702115
250	0x3ccf958b	0.025339862
251	0xbe127bdf	-0.14305066
252	0xbe052456	-0.13002142
253	0xbddac740	-0.10682535
254	0xbdc427c5	-0.09577898
255	0xbe0d6ec5	-0.13811786

module1.bn2.weight f4 [16]
0	0x3f07bd6e	0.5302342
1	0x3f10c942	0.56557095
2	0x3f04e7df	0.5191631
3	0x3f0f6d69	0.5602632
4	0x3f0a2c66	0.53973997
5	0x3f09d50b	0.538407
6	0x3f07060c	0.527436
7	0x3f132a11	0.57486063
8	0x3f066ee5	0.5251296
9	0x3f13e1ff	0.5776672
10	0x3f1176fe	0.5682219
11	0x3f17583e	0.5911902
12	0x3f15257a	0.5826031
13	0x3f1d6d48	0.61494875
14	0x3f17128b	0.5901267
15	0x3f0ce08c	0.5503013

module1.bn2.bias f4 [16]
0	0x3d16cc1f	0.03681576
1	0x3bff78ec	0.0077963974
2	0xbc9d16d9	-0.019175934
3	0xbbb43077	-0.0054989415
4	0xbc52df19	-0.012870573
5	0x3c6e1ac7	0.014532751
6	0x3d095017	0.033523645
7	0x3aa91d58	0.0012902422
8	0xbc477bc1	-0.012175501
9	0xbb6c2442	-0.0036032354
10	0xbb4269fa	-0.0029665218
11	0xbc755874	-0.014974702
12	0xbc4c1709	-0.012456664
13	0xbc59abce	-0.01328559
14	0xbc2ee3aa	-0.0106743965
15	0x3bd33355	0.0064453282

module1.bn2.running_mean f4 [16]
0	0x3c351923	0.011053356
1	0xbc1523d6	-0.009102782
2	0x3d6678ba	0.056267478
3	0xbccc7002	-0.024955753
4	0xbada5264	-0.0016656634
5	0x3b918329	0.0044406843
6	0xbca976d5	-0.020686546
7	0x3d0b228f	0.033968505
8	0x3b99d0a3	0.004694061
9	0x3d68af9b	0.056808095
10	0xbd1e5d22	-0.038663037
11	0xbcacf52a	-0.021112997
12	0x3d9826cf	0.07429277
13	0xbcbd4138	-0.023102388
14	0xbc56a91c	-0.013101842
15	0xbcca4bee	-0.02469441

module1.bn2.running_var f4 [16]
0	0x3b543d6e	0.0032385248
1	0x3b74fd4a	0.0037382417
2	0x3abf8e03	0.0014614466
3	0x3b4bbc7e	0.0031087692
4	0x3af4e8ac	0.0018685064
5	0x3b1dbfba	0.0024070577
6	0x3b7d3aae	0.0038639712
7	0x3af06219	0.0018339782
8	0x3b07788e	0.0020671221
9	0x3b299406	0.0025875582
10	0x3aed5acf	0.0018108728
11	0x3b11538f	0.002217505
12	0x3b07e3dd	0.0020735182
13	0x3b087599	0.0020822047
14	0x3b0867b9	0.0020813777
15	0x3ae9bbf3	0.0017832502

module2.residual_conv.weight f4 [32, 16, 1, 1]
0	0x3cc0ae65	0.023520658
1	0xbcb7fcc2	-0.022459392
2	0x3d172e74	0.036909536
3	0xbc9f7971	-0.019467087
4	0xbdf0da73	-0.11760416
5	0xbddd1c76	-0.10796444
6	0xbdd30ec6	-0.10305552
7	0xbd1304e2	-0.03589333
8	0x3d930c97	0.07180136
9	0xbde71b87	-0.11284547
10	0xbd6aa44d	-0.057285596
11	0xbdfd3031	-0.123627074
12	0x3dc82b16	0.09773843
13	0xbc5d76fe	-0.0135171395
14	0xbd94f730	-0.0727371
15	0xbe057fbe	-0.13037011
16	0xbcbfeaef	-0.023427455
17	0x3ddb2f11	0.107023366
18	0x3e4c4b78	0.19950664
19	0x3d4c1509	0.04982475
20	0x3e3b977f	0.1831951
21	0x3d5b0a33	0.053476524
22	0xbdcfd1cc	-0.101474375
23	0x3cb3b2c2	0.021935824
24	0x3d031a8f	0.03200775
25	0xbd3f5200	-0.04670906
26	0x3d9d59b7	0.076831274
27	0xbd1cf163	-0.03831614
28	0xbc82bf15	-0.015960256
29	0xbca4ef03	-0.0201335
30	0xbd9f40dd	-0.077760436
31	0xbc1f3519	-0.009717249
32	0x3d6b0c38	0.0573847
33	0xbcfe0c34	-0.031011678
34	0x3cb1de54	0.02171246
35	0xbdb40980	-0.087908745
36	0xbdaf0e88	-0.085476935
37	0xbd800492	-0.06250872
38	0x3ca324da	0.019915033
39	0xbe05aab3	-0.13053398
40	0x3d8c95f9	0.068645425
41	0xbdee7717	-0.11643808
42	0xbc4bd83d	-0.012441692
43	0x3de10b9b	0.10988542
44	0xbd338394	-0.043826655
45	0x3d314f03	0.043288242
46	0xbdb1c496	-0.08680074
47	0xbd9972be	-0.074925885
48	0x3aba44a7	0.0014211134
49	0x3e04516f	0.1292169
50	0xbd3a3d23	-0.04546846
51	0xba8337db	-0.0010011153
52	0xbda9f599	-0.08298797
53	0xbe1f372b	-0.15548389
54	0xbe00768d	-0.12545224
55	0xbd2e8d4a	-0.042615213
56	0x3ccd8f50	0.02509275
57	0x3d9f0e10	0.07766354
58	0x3bec730a	0.007215862
59	0x3dfd8b14	0.12380043
60	0x3dabaa74	0.08382121
61	0x3d11f630	0.035635173
62	0x3d6a2812	0.05716712
63	0xbdcaf0c7	-0.09909206
64	0x3d4da8e8	0.05020991
65	0x3d19dd66	0.037564658
66	0x3dc755bc	0.097331494
67	0x3e0ba77b	0.13638107
68	0xbd1c21a3	-0.038118016
69	0x3df49e8c	0.11944303
70	0x3e11ac6c	0.1422593
71	0x3e0c69c5	0.13712223
72	0x3d04ef84	0.032454982
73	0x3c48cdf5	0.012256135
74	0xbd840634	-0.06446496
75	0xbd7e29e8	-0.062051684
76	0x3de0d321	0.1097777
77	0x3d660d99	0.05616531
78	0x3ccb2721	0.024798932
79	0xbddd6869	-0.1081093
80	0x3dd97abf	0.10619115
81	0xbc5d1c42	-0.013495507
82	0x3dcf5854	0.10124269
83	0xbdd3fc7c	-0.10350892
84	0x3d82f562	0.06394459
85	0xbc60ea8c	-0.013727795
86	0xbd55b1fc	-0.052171692
87	0xbd81c0b1	-0.06335581
88	0x3c950d08	0.01819469
89	0xbd4c3f0c	-0.049864814
90	0xbdcdf867	-0.100571446
91	0x3df1131c	0.11771223
92	0x3e0e2c90	0.13884187
93	0xbe3a94c9	-0.1822082
94	0xbd59555e	-0.053059928
95	0xbe311644	-0.1729365
96	0xbce3168e	-0.027720716
97	0x3d916a61	0.07100368
98	0x3dc5c3f8	0.09656519
99	0x3e049b34	0.1294983
100	0x3d110737	0.03540727
101	0x3dca2aa9	0.09871418
102	0x3dc08703	0.094007514
103	0xbd444ce8	-0.047924906
104	0xbd34fa5a	-0.044184066
105	0xbdcd5ec9	-0.100278445
106	0x3de9bf5d	0.11413453
107	0x3e361282	0.17780498
108	0xbd18877c	-0.037238583
109	0xbd750d96	-0.05982741
110	0x3e195889	0.1497518
111	0x3c9cfb5b	0.019162824
112	0xbdba7a7e	-0.09105395
113	0x3d6fa0e8	0.05850306
114	0x3e04238d	0.12904187
115	0xbccf2b9f	-0.025289355
116	0xbd1753b8	-0.036945075
117	0xbd0f32fe	-0.03496074
118	0xbd23d722	-0.04000009
119	0x3dcb287c	0.09919831
120	0x3c85bea3	0.016326254
121	0xbd639a5e	-0.055567138
122	0xbdd38f95	-0.103301205
123	0xbda3d552	-0.07999672
124	0xbdfe9c6b	-0.12432178
125	0xbbb5ff5d	-0.0055541233
126	0x3d01dfdc	0.03170763
127	0xbe00fe6c	-0.12597054
128	0x3d59e41e	0.053196065
129	0x3cd01781	0.025401833
130	0x3d0e8c0b	0.034801524
131	0x3cb2aa6b	0.021809777
132	0xbd3bf38d	-0.045886565
133	0xbdf75bbf	-0.12078046
134	0xbdb8e5ec	-0.09028229
135	0x3c320af0	0.0108668655
136	0x3d8d6bcd	0.06905327
137	0x3d1df1d0	0.03856069
138	0xbbcebe0b	-0.006309276
139	0x3be5bb15	0.0070108273
140	0xbc8a258c	-0.016863607
141	0xbd845ece	-0.06463395
142	0xbe34e549	-0.1766559
143	0x3d49a43f	0.049228903
144	0xbbff3c00	-0.007789135
145	0x3bab01fe	0.0052187433
146	0x3cfbb4ed	0.03072592
147	0x3da70125	0.08154515
148	0x3e253972	0.16135195
149	0x3d73117d	0.05934285
150	0xbd00b4f9	-0.03142259
151	0x3b6b2e93	0.0035885915
152	0xbd07c882	-0.033150204
153	0x3e0b7371	0.13618256
154	0xbda7d484	-0.08194831
155	0xbdc9b1ac	-0.09848341
156	0x3da1588d	0.07878218
157	0xbd1af58c	-0.037831828
158	0x3d708450	0.058719933
159	0x3d967c7e	0.07347964
160	0xbe0391cf	-0.1284859
161	0xbd4ad3d9	-0.04951844
162	0xbdc81db0	-0.097712874
163	0x3ce65c0b	0.028120061
164	0xbdf43c0f	-0.11925518
165	0xbe032856	-0.12808356
166	0x3d4d16d5	0.050070602
167	0xbdcfeec1	-0.101529606
168	0xbdff3370	-0.12460983
169	0xbd73c281	-0.059511665
170	0xbdaddd4c	-0.08489475
171	0x3e1a7f07	0.1508752
172	0xbd4cecbb	-0.05003045
173	0xbdcf1c97	-0.10112875
174	0xbdb83783	-0.08994963
175	0xbdafc3ce	-0.08582269
176	0x3dacc5f2	0.084361926
177	0x3d6437f9	0.055717442
178	0x3dabce36	0.08388941
179	0xbdc7cc0f	-0.09755718
180	0x3db02b78	0.08602041
181	0xbde9ec35	-0.11422006
182	0x3d6eb3f0	0.05827707
183	0xbd4ff49b	-0.050770383
184	0x3e0f9f03	0.14025502
185	0xbd775f43	-0.060393583
186	0x3d205b9f	0.039149877
187	0x3cc9a388	0.02461411
188	0xbc002d56	-0.007823309
189	0xbd741165	-0.0595869
190	0xbe26ec3b	-0.16301052
191	0x3d72fdc9	0.05932406
192	0x3d816395	0.06317822
193	0xbd990f99	-0.07473678
194	0xbd6656ff	-0.05623531
195	0x3e04f03a	0.12982264
196	0xbdc8c123	-0.09802463
197	0x3e0d900e	0.13824484
198	0x3df44246	0.11926703
199	0x3d5df849	0.05419186
200	0xbd87fd78	-0.06640142
201	0xbdb081ea	-0.08618529
202	0x3d7372f6	0.059435807
203	0x3dac0867	0.0840004
204	0xbd29222f	-0.041292366
205	0x3c89a4b1	0.016802164
206	0x3dccf934	0.10008469
207	0x3cdef999	0.027218627
208	0x3ac18cd5	0.0014766703
209	0x3dc7a65c	0.097485274
210	0x3d04a970	0.03238815
211	0x3d8a1437	0.06742137
212	0x3cec62fd	0.028855795
213	0x3d1b9dce	0.03799229
214	0x3dc553e9	0.09635145
215	0x3dc9834b	0.09839495
216	0xbd8d1b70	-0.06889999
217	0xbcd19f22	-0.025588576
218	0xbdc6657f	-0.096873276
219	0xbe0f210d	-0.13977452
220	0x3d2b6042	0.041839845
221	0xbd80cfa5	-0.06289605
222	0x3e581d28	0.21104872
223	0xbdb381d6	-0.087649986
224	0x3d7c2b07	0.06156447
225	0x3dc9eecc	0.0986
226	0xbd72962c	-0.059225246
227	0xbc109eb7	-0.008826903
228	0x3d1b3fc7	0.03790262
229	0xbe018097	-0.1264671
230	0x3d9baa00	0.07600784
231	0x3ce0f5f2	0.027461026
232	0x3df874bb	0.121316396
233	0xbb2b3913	-0.0026126548
234	0xbdcc12d8	-0.09964532
235	0x3de4a3a7	0.11164027
236	0x3d8f882e	0.07008396
237	0xbca57356	-0.020196598
238	0xbdbf87f0	-0.093521
239	0xbd26632c	-0.04062192
240	0x3c595613	0.013265151
241	0xbe0f0125	-0.1396528
242	0xbd038c55	-0.032116253
243	0xbd61c82b	-0.055122536
244	0xbdd2d996	-0.102954075
245	0x3ca34113	0.01992849
246	0xbdf7ff2f	-0.12109219
247	0xbd94504f	-0.0724188
248	0xbe090740	-0.13381672
249	0xbd522427	-0.05130401
250	0xbdc66c29	-0.09688599
251	0x3d852a96	0.06502263
252	0xbde94d01	-0.113916405
253	0x3c1c0633	0.009522962
254	0xbda8e1d5	-0.08246199
255	0xbdd28d78	-0.10280889

module2.residual_bn.weight f4 [32]
0	0x3ef9bb97	0.48775932
1	0x3eecc79d	0.46246043
2	0x3f011c9e	0.5043429
3	0x3eec8c68	0.4620087
4	0x3ee69264	0.45033562
5	0x3ef6a2af	0.48170993
6	0x3edc0f99	0.4298065
7	0x3ee1d946	0.4411108
8	0x3ef07eaf	0.46971652
9	0x3f02432f	0.50883764
10	0x3ef2d440	0.4742756
11	0x3f028f94	0.5100033
12	0x3f00767f	0.5018081
13	0x3f01d985	0.50722533
14	0x3eebba74	0.4604069
15	0x3f0c6992	0.5484859
16	0x3ef50471	0.4785495
17	0x3f04b18c	0.51833415
18	0x3f04c99c	0.5187013
19	0x3f02486c	0.50891757
20	0x3ef82fbe	0.48473924
21	0x3ede920e	0.43470806
22	0x3eebd55e	0.46061224
23	0x3f047090	0.51734257
24	0x3f017f00	0.5058441
25	0x3ef1ab49	0.47200993
26	0x3ee427e5	0.44561687
27	0x3ee9df8b	0.45678362
28	0x3ef2539e	0.4732942
29	0x3ef0d93b	0.47040734
30	0x3ee32cad	0.44370022
31	0x3f0a7a7c	0.54093146

module2.residual_bn.bias f4 [32]
0	0xbc77afb4	-0.0151175745
1	0xbbdc6fb4	-0.0067271832
2	0xbc8b8513	-0.017031228
3	0xbc2bb759	-0.010480725
4	0xbc9e5d19	-0.019331502
5	0xbc677178	-0.014126174
6	0x3a679ab4	0.0008835003
7	0x3bbbe86a	0.005734493
8	0x3a7f607a	0.0009741854
9	0xbbdf87fa	-0.0068216296
10	0xbbe275ff	-0.006911039
11	0x3c3ef2fa	0.01165461
12	0x3ab693c0	0.0013929531
13	0xbc7d1915	-0.015447875
14	0xba877301	-0.0010333956
15	0x3c4c39b1	0.012464927
16	0xbb8041a3	-0.0039140745
17	0xbba03444	-0.004889043
18	0xbc9a7fd9	-0.01885979
19	0xbc096818	-0.008386634
20	0xbc3908c8	-0.0112935975
21	0xbbd7711d	-0.0065747635
22	0xbb0777c0	-0.0020670742
23	0xbc416d19	-0.011805796
24	0x3b7d3c6a	0.0038640746
25	0x3be62daa	0.0070244865
26	0xbc1384fb	-0.009003873
27	0xbb84f000	-0.0040569305
28	0x3be0bc40	0.0068583786
29	0xbc4570ea	-0.012050847
30	0xbc7b1288	-0.015324242
31	0x3a550af2	0.0008126936

module2.residual_bn.running_mean f4 [32]
0	0xbe91bc18	-0.28463817
1	0x3de8e3af	0.11371552
2	0xbe21476b	-0.157499
3	0x3c5b619d	0.013389972
4	0x3e98882b	0.29791388
5	0xbe00b65a	-0.12569562
6	0x3e8cae0d	0.2747654
7	0xbe13bada	-0.14426747
8	0xbdd707a3	-0.104995035
9	0x3e112707	0.14175044
10	0xbeb89e41	-0.36058238
11	0x3b9ea7c8	0.0048417784
12	0x3e356afe	0.17716596
13	0x3e01371b	0.12618677
14	0x3da413b0	0.080115676
15	0xbec5f527	-0.386636
16	0x3cabf733	0.020991897
17	0x3ea49fe4	0.32153237
18	0x3dec39d0	0.11534464
19	0xbd865f34	-0.06561127
20	0xbd3c9494	-0.046040133
21	0xbd98b8c6	-0.07457118
22	0xbcab7d66	-0.020933818
23	0xbed690e5	-0.4190742
24	0xbe203c8c	-0.15648097
25	0xbbe2dc64	-0.0069232453
26	0x3d073304	0.033007637
27	0xbc774b5a	-0.015093649
28	0x3b9328b0	0.0044909343
29	0x3e5eeea6	0.21770725
30	0x3e359bd5	0.17735226
31	0x3e451d81	0.19249536

module2.residual_bn.running_var f4 [32]
0	0x3e0cc411	0.13746668
1	0x3db0bbad	0.08629546
2	0x3e3a5937	0.18198095
3	0x3e0b2ec2	0.13592055
4	0x3dc22b42	0.09480907
5	0x3e3b0416	0.18263277
6	0x3da2f51f	0.079569094
7	0x3d6b2122	0.057404645
8	0x3dada269	0.08478243
9	0x3e1b8cb0	0.15190387
10	0x3e0d2e95	0.13787301
11	0x3de4d59e	0.11173557
12	0x3dcfba29	0.10142929
13	0x3d98fbc9	0.07469899
14	0x3e098fe1	0.13433792
15	0x3dded806	0.10881047
16	0x3ddc4d7d	0.10756967
17	0x3dad7e6b	0.08471378
18	0x3e08ee8a	0.13372245
19	0x3dcfb692	0.101422444
20	0x3dd66178	0.104678094
21	0x3dc2a47f	0.095040314
22	0x3e01a5a0	0.12660837
23	0x3dfed289	0.124425
24	0x3e292f03	0.1652184
25	0x3e0a0f34	0.13482362
26	0x3e74ffb1	0.23925664
27	0x3de2aa9d	0.11067698
28	0x3e0eb890	0.13937593
29	0x3e347b33	0.17625122
30	0x3de46b26	0.111532494
31	0x3e077e0a	0.13231674

module2.sepConv1.depthwise.weight f4 [16, 1, 3, 3]
0	0x3e6e0008	0.232422
1	0x3dc176df	0.09446501
2	0x3e2084ed	0.15675707
3	0x3e0f7060	0.14007711
4	0x3df41654	0.11918321
5	0xbe036a9e	-0.1283364
6	0xbe2eeb41	-0.1708193
7	0xbe1e61cf	-0.15466999
8	0xbe2775f8	-0.16353595
9	0x3dd0996f	0.10185515
10	0xbe4b1254	-0.1983121
11	0xbc8d87bc	-0.017276637
12	0x3cf4e403	0.02989388
13	0xbe91bd2a	-0.28464633
14	0xbdd31f77	-0.10308736
15	0xbdf0a89a	-0.11750908
16	0xbc6acfcb	-0.014331768
17	0xbde413c5	-0.11136583
18	0x3d1936a2	0.037405618
19	0xbe09b76b	-0.13448875
20	0x3e014bfa	0.12626639
21	0xbe39f6be	-0.18160531
22	0x3c186d45	0.009303396
23	0xbc5f0899	-0.01361289
24	0x3d4fe325	0.05075373
25	0x3e8a477e	0.2700767
26	0x3e2c7650	0.16842008
27	0xbda9e1d4	-0.082950264
28	0x3e428e92	0.18999699
29	0x3e8c0223	0.2734538
30	0x3c77d84c	0.015127253
31	0x3df42277	0.11920636
32	0xbcb9acf4	-0.022665478
33	0xbe375f23	-0.17907386
34	0x3dae081c	0.084976405
35	0x3e4db9ea	0.20090452
36	0xbdf2e9ff	-0.118610375
37	0xbd9c8805	-0.07643131
38	0xbe05b086	-0.1305562
39	0x3c01e2d6	0.007927617
40	0x3db3b093	0.08773913
41	0x3e53dc1f	0.20689438
42	0xbd964c1a	-0.07338734
43	0xbe494543	-0.19655327
44	0x3ce7a440	0.028276563
45	0x3ac216a6	0.0014807775
46	0x3d791e3f	0.06081986
47	0x3dc16aa6	0.0944417
48	0xbe2b79bc	-0.16745657
49	0x3dc1579d	0.09440539
50	0x3d69b5db	0.057058197
51	0xbe7c06a4	-0.24611908
52	0xbd6a63fb	-0.057224255
53	0xbe5f540f	-0.2180941
54	0x3dc5f54d	0.09665928
55	0xbdc58fee	-0.09646593
56	0xb66eef0a	-3.5603903e-06
57	0x3e1563c4	0.14588839
58	0x3dbecaad	0.09316001
59	0x3dbe8e30	0.09304464
60	0x3e3275f6	0.17427811
61	0x3dc05cfa	0.09392734
62	0x3e51bf73	0.20483188
63	0xbe15c27f	-0.14624976
64	0xbdb9ae2e	-0.09066425
65	0x3e082545	0.13295467
66	0xbe05796f	-0.13034604
67	0xbe63e01b	-0.22253458
68	0xbc9e1cc6	-0.01930083
69	0xbd5f7b72	-0.054561086
70	0x3c8fe0cb	0.017563244
71	0x3d0891ad	0.033342052
72	0x3d8917bd	0.06693981
73	0x3e7f6552	0.24940994
74	0x3cda366c	0.026637278
75	0x3e12d995	0.14340813
76	0x3d02fb22	0.03197778
77	0x3dfbecee	0.1230105
78	0x3cba43de	0.02273744
79	0xbd3846f4	-0.04498954
80	0xbdfc46da	-0.12318201
81	0x3dc78e5a	0.09743948
82	0x3e43c919	0.19119681
83	0x3dbd6563	0.092478536
84	0x3d6a4ac9	0.057200227
85	0x3d59d129	0.053177986
86	0x3d2d0133	0.04223747
87	0x3c44166b	0.0119682355
88	0x3de19ea6	0.11016588
89	0x3df46c66	0.11934738
90	0x3c164fa6	0.009174263
91	0x3dbedbb8	0.09319252
92	0xbdcfabef	-0.101402156
93	0x3e4220c2	0.18957809
94	0x3e01eb12	0.12687328
95	0x3e74031b	0.2382931
96	0xbd28a90a	-0.041176833
97	0xbb8b1989	-0.0042449874
98	0xbcb0eae1	-0.021596374
99	0x3e5f741e	0.21821639
100	0x3d7f681d	0.06235515
101	0xbd5f1a25	-0.054468293
102	0x3e467033	0.19378738
103	0x3e66c222	0.22534993
104	0xbe02d4e5	-0.12776525
105	0xbe5e1226	-0.2168661
106	0x3b6a1600	0.003571868
107	0xbe03fb79	-0.12888898
108	0xbd113ff1	-0.03546137
109	0x3e2ee680	0.17080116
110	0x3e41cbbe	0.18925378
111	0xbda0cc46	-0.07851462
112	0xbc49006f	-0.01226817
113	0xbcb21c06	-0.021741878
114	0xbe86b469	-0.26309517
115	0xbd159359	-0.036517475
116	0x3c90ed1a	0.017691184
117	0x3de68832	0.11256446
118	0x3c19eb87	0.009394533
119	0x3e506ead	0.2035472
120	0x3e3c4867	0.18386994
121	0xbd7e2e2e	-0.06205576
122	0x3e690e6f	0.22759412
123	0xbd275774	-0.040854886
124	0x3e1f438e	0.15553114
125	0xbe01518c	-0.12628764
126	0x3d9d31b7	0.07675498
127	0xbce37d2d	-0.02776965
128	0x3e14c121	0.14526798
129	0xbdb5eeab	-0.08883413
130	0x3ddc92ef	0.10770213
131	0xbe15a52e	-0.14613792
132	0x3e1f8e74	0.15581685
133	0x3dcb19f0	0.099170566
134	0x3e27a89b	0.16372912
135	0x3d02b0a2	0.03190673
136	0x3be4a37f	0.006977498
137	0xbd1a2958	-0.037637085
138	0xbd72c223	-0.059267174
139	0xbdd2ecf2	-0.102991
140	0xbddf7480	-0.109108925
141	0x3e5c0910	0.21487832
142	0x3e6c3842	0.23068336
143	0xbd65cb66	-0.05610218
